ISLM_v02/lightning_logs/version_1/checkpoints/epoch=49-step=1250.ckpt (torch, 5961 bytes, 6 tensors)

linear.weight f4 [2, 4]
0.48064622 0.62759554 0.07575989 0.1752879 0.17262578 0.4248236 0.3002827 -0.14126757
00000000: 4317 f63e 1aaa 203f 0028 9b3d ac7e 333e
00000010: d0c4 303e 7b82 d93e a7be 993e 72a8 10be

linear.bias f4 [2]
0.98026395 0.4573309
00000000: 94f2 7a3f 4727 ea3e

exp_avg f4 [2, 4]
-1455.2927 687.8251 -3.390358 -1.201244 -907.2493 526.44415 0.7424012 0.25490826
00000000: 5ee9 b5c4 cef4 2b44 a0fb 58c0 5dc2 99bf
00000010: f5cf 62c4 6d9c 0344 010e 3e3f 5683 823e

exp_avg_sq f4 [2, 4]
6.1754764e+07 1.0878909e+07 4232.032 1990.1913 2.251226e+07 3.8702275e+06 1404.2852 683.4005
00000000: 6393 6b4c bdff 254b 4240 8445 1fc6 f844
00000010: 42c1 ab4b 4e38 6c4a 2089 af44 a2d9 2a44

exp_avg f4 [2]
-1.7573787 0.05492491
00000000: c9f1 e0bf f1f8 603d

exp_avg_sq f4 [2]
1322.9031 446.9241
00000000: e65c a544 4976 df43
